model/0.pth (torch, 505903 bytes, 30 tensors)

n1.0.weight f4 [8, 300]
0.053508583 -0.020644983 0.04859161 0.02876041 -0.057753265 0.09938415 -0.03813555 0.02760534
0.05633428 0.073527865 -0.011610556 0.091328144 -0.013844469 0.008390039 0.044731963 0.0637807
-0.019517224 0.03321801 0.11977934 -0.025594475 0.016222091 -0.04819019 -0.05897521 0.079205245
0.0068768607 -0.06449558 0.114954844 0.033991575 -0.0075629726 -0.03610223 -0.0068878154 0.026112996
-0.04479123 -0.008745256 -0.015428293 -0.007389992 -0.029143145 -0.036779642 0.032183465 -0.047324654
-0.047518827 -0.0117235305 0.08960809 -0.00047533622 0.015870523 0.07998161 0.006607165 0.04470527
0.029542044 -0.03232823 0.10848399 -0.00765308 0.027329678 0.018504111 -0.04133144 0.08254572
0.006008934 0.061716843 0.03997244 0.07335307 0.050386913 -0.024929281 0.05511132 0.09376335
-0.0105219055 -0.054295067 -0.0040790876 -0.04107393 -0.0033040228 2.6161957e-05 0.016010351 -0.038162887
0.015892154 -0.00024900492 0.051981077 -0.016774723 -0.060616825 -0.023797782 0.012628127 0.017459778
-0.009097375 -0.010627381 -0.008444754 0.09425837 0.0033909897 0.004644355 -0.01744349 0.00062254333
0.00016156677 0.05103579 -0.011709713 0.011360117 -0.008120957 0.0076374887 -0.0027732956 0.016257199
0.012979193 -0.016731177 0.012572574 0.0030986376 0.0011244786 -0.001746047 0.005382074 0.053747833
-0.0027301293 0.01123957 0.010104597 -0.0016617142 0.06963732 0.0020082071 -0.017960044 0.006988285
0.03175796 0.0059565124 0.001869281 -0.0142953405 0.00044890505 -0.004244959 0.010410667 -0.057334267
0.019297896 -0.0043126475 0.011579293 -0.008343952 0.0065939687 0.00745997 0.003111185 -0.010858244
0.002627365 0.005625121 0.008058523 0.0028292465 -0.0073835426 0.0033916454 -0.0039639287 -0.012739143
0.0063033286 -0.00029068848 0.0011416012 -0.00058682705 -0.001437002 0.022785094 -0.0038198987 -0.008195504
1.0424817e-05 -0.0046608285 0.006245747 0.0047748554 -0.011530543 0.003712869 0.002579951 -0.004089622
0.001318322 -0.02439708 0.0055925893 -0.013555334 -0.010060684 0.0070048524 0.002639085 -0.0034814065
0.04455453 0.022847584 -0.011090022 -0.00057824 -0.0018246644 0.0004673308 0.0035481546 -0.06160688
-0.00021032913 -0.02170911 -0.008048273 0.0062533175 -0.0037361728 0.013928281 0.00073617697 -0.0021687564
-0.0014513863 -0.012585895 0.012099198 -0.0072669648 -0.013139715 -0.03492305 -0.019531116 -0.0013506155
-1.0358228e-05 -0.0050767474 0.006455349 -0.006474455 0.0063905916 0.0009520567 -0.007961663 0.004625418
-0.004020047 0.05302803 0.0037512537 -0.024786713 0.005513279 0.010951621 -0.003306198 0.0017137124
-0.00048356026 0.0062126815 0.0004201275 0.007458872 -0.017207062 -0.0017007766 -0.009076273 -0.0019121584
-0.005766699 0.06947795 0.007854911 -0.014191031 0.06390976 -0.013137886 -0.00068693573 -0.005127579
0.006208761 0.0027999568 0.027755413 -0.0023045626 -0.0015864038 -0.0028254213 0.00617925 -0.009065377
-0.0024280595 -0.006221324 -0.004433076 0.002821517 0.012689622 0.059521314 -0.0008822294 -0.009761314
0.0026229185 -0.012037206 -0.016512312 0.009019386 -0.004015498 0.0001295997 -0.0013311752 0.0043900507
0.0060398355 0.0047341967 -0.009388732 -0.019384347 0.008370642 0.010456815 -0.013198091 -0.0020833542
0.012093041 0.035951868 0.000352717 0.006657796 -0.003914478 0.0073861773 0.0053204703 0.0020458759
00000000: d12b 5b3d ab1f a9bc ff07 473d f49a eb3c
00000010: b08e 6cbd eb89 cb3d 0634 1cbd 9824 e23c
00000020: c6be 663d c795 963d 343a 3ebc 400a bb3d
00000030: e9d3 62bc 6076 093c dd38 373d 759f 823d
00000040: 96e2 9fbc 9c0f 083d df4e f53d 81ab d1bc
00000050: 31e4 843c 1463 45bd fd8f 71bd 5c36 a23d
00000060: 4a57 e13b 4216 84bd 726d eb3d c03a 0b3d
00000070: d0d2 f7bb efdf 13bd 2fb3 e1bb ecea d53c
00000080: 0277 37bd 4348 0fbc f3c6 7cbc bf27 f2bb
00000090: 9bbd eebc 40a6 16bd cfd2 033d 7fd7 41bd
000000a0: 1aa3 42bd 0d14 40bc 7284 b73d 8c36 f9b9
000000b0: e602 823c 66cd a33d eb80 d83b e01c 373d
000000c0: 2802 f23c 9b6a 04bd db2c de3d b0c6 fabb
000000d0: 7de2 df3c ef95 973c 284b 29bd bb0d a93d
000000e0: 98e6 c43b cdca 7c3d 24ba 233d 223a 963d
000000f0: 8262 4e3d 7e38 ccbc 68bc 613d 0007 c03d
00000100: 1264 2cbc 8164 5ebd dea9 85bb 233d 28bd
00000110: 4e88 58bb 6076 db37 2428 833c b050 1cbd
00000120: 4330 823c e08c 82b9 1cea 543d 256b 89bc
00000130: 5949 78bd 91f3 c2bc 34e6 4e3c cf07 8f3c
00000140: 280d 15bc 771e 2ebc de5b 0abc 880a c13d
00000150: 5e3b 5e3b ac2f 983b a6e5 8ebc 2d32 233a
00000160: 406a 2939 e80a 513d 19da 3fbc c91f 3a3c
00000170: c30d 05bc e643 fa3b 2ec0 35bb d12d 853c
00000180: aea6 543c d20f 89bc 33fd 4d3c 8312 4b3b
00000190: 3e63 933a 9edb e4ba 1c5c b03b b026 5c3d
000001a0: f8eb 32bb 2c26 383c c08d 253c e0cd d9ba
000001b0: 039e 8e3d 209c 033b f120 93bc fcfd e43b
000001c0: a214 023d d92e c33b aa02 f53a 0137 6abc
000001d0: 045b eb39 4c19 8bbb 8191 2a3c 56d7 6abd
000001e0: 9f16 9e3c 1c51 8dbb 13b7 3d3c 12b5 08bc
000001f0: 3812 d83b c472 f43b 06e5 4b3b c7e6 31bc
00000200: df2f 2c3b ef52 b83b e507 043c e16a 393b
00000210: a5f1 f1bb 5e46 5e3b d8e3 81bb d7b7 50bc
00000220: 278c ce3b 8c67 98b9 c8a1 953a 4cd5 19ba
00000230: c959 bcba cea7 ba3c 4457 7abb 6f46 06bc
00000240: 40e6 2e37 ddb9 98bb 20a9 cc3b 6476 9c3b
00000250: 9aea 3cbc 9b53 733b 6514 293b 3c02 86bb
00000260: 8ccb ac3a 63dc c7bc 0a42 b73b 3117 5ebc
00000270: 91d5 24bc f688 e53b 80f4 2c3b 4f28 64bb
00000280: d07e 363d db2a bb3c ecb2 35bc 0895 17ba
00000290: 9429 efba 1404 f539 2888 683b 7f57 7cbd
000002a0: cc8b 5cb9 4ed7 b1bc e7dc 03bc a1e8 cc3b
000002b0: 94da 74bb 7233 643c 00fc 403a b221 0ebb
000002c0: 713c beba 1235 4ebc b73b 463c b81f eebb
000002d0: f647 57bc 790b 0fbd b8ff 9fbc 2307 b1ba
000002e0: 40c8 2db7 d85a a6bb 6487 d33b aa27 d4bb
000002f0: 2b68 d13b 7293 793a a371 02bc d290 973b
00000300: 99ba 83bb eb33 593d 98d7 753b 810d cbbc
00000310: bca8 b43b 6e6e 333c ccac 58bb a59e e03a
00000320: 5c86 fdb9 c093 cb3b 8f44 dc39 8e69 f43b
00000330: d3f5 8cbc 98ec deba a6b4 14bc 64a1 faba
00000340: 94f6 bcbb 754a 8e3d e2b1 003c 8081 68bc
00000350: 1fe3 823d 4a40 57bc 7a13 34ba 4005 a8bb
00000360: dd72 cb3b 7b7f 373b 525f e33c 2508 17bb
00000370: e1ee cfba b42a 39bb 4e7b ca3b f286 14bc
00000380: 1420 1fbb 40dc cbbb 5643 91bb 33e9 383b
00000390: 22e8 4f3c 9fcc 733d 6a45 67ba ebed 1fbc
000003a0: 45e5 2b3b b437 45bc d444 87bc 0cc6 133c
000003b0: 7094 83bb 28e5 0739 d47a aeba 6ada 8f3b
000003c0: d0e9 c53b 5221 9b3b 32d3 19bc eccb 9ebc
000003d0: 0425 093c 1053 2b3c ce3c 58bc e288 08bb
000003e0: e421 463c 4442 133d e0ec b839 a429 da3b
000003f0: 0545 80bb bf07 f23b 5757 ae3b 1a14 063b

n1.2.weight f4 [9600, 8]
0.010540835 -0.018537762 -0.029028865 -0.023533601 -0.05219587 -0.019755771 0.0134365875 -0.0030974264
0.029764399 -0.024586681 0.02693582 0.0524687 0.107320786 -0.016168382 -0.011532004 -0.018083936
-0.029214734 0.0097083505 -0.13553983 0.013444426 0.110635094 0.030198326 -0.00027843402 -0.02360744
-0.009406298 0.037411302 -0.08947188 0.062424086 0.040881667 0.044303995 -0.0051707095 0.014733029
-0.0018333292 -0.013432094 0.07301994 -0.009609766 0.006099999 -0.015315759 -0.0028030241 0.08753162
-0.0041015497 0.02037981 0.003922899 0.0686728 0.08182088 -0.013061459 -0.056571476 0.01149497
0.022733651 0.014657531 0.21368317 -0.0062198397 0.11677121 0.07897007 0.06798367 0.092360325
-0.0666238 0.041169573 -0.029569207 0.056675397 -0.14744376 0.015912898 -0.053966533 0.10307904
-0.003874897 0.001647617 0.13365874 -0.06120268 -0.038847152 -0.030987557 -0.00825368 -0.06449259
-0.11440672 -0.07836498 -0.050257582 0.007602393 -0.20085889 0.048550032 -0.116913505 -0.17279316
-0.06108766 -0.0017189207 -0.094215244 -0.006824941 -0.063283764 -0.00755526 -0.037948865 0.0065984195
-0.04214046 0.021264128 0.24119669 -0.016641628 0.013181122 0.11865757 0.06214498 -0.084486805
0.011510494 -0.07701998 0.22343238 -0.0033077768 0.1588489 0.15146887 -0.039427232 -0.12895267
0.039601784 0.024629833 0.068756886 0.0012888778 0.025832027 0.036073744 -0.009395709 0.010813219
0.0567257 -0.009145413 -0.08779678 0.007940697 0.009242061 0.016672416 0.018528152 0.0012661612
-0.03277862 -0.020053312 -0.17805004 -0.009062015 0.02113044 -0.011199387 -0.023470134 -0.0063931793
-0.041760717 0.07780594 0.2646778 -0.05731054 0.20246232 -0.11200393 0.036757227 0.117913686
-0.041617524 0.008723626 0.050730564 0.018564953 0.01905924 0.06619674 0.0027044022 0.025470393
-0.032545958 -0.01088048 0.033272274 -0.017980829 -0.020349447 -0.039785895 0.0031048255 -0.056571815
0.0044781496 -0.08445876 -0.08352366 0.039848544 -0.0989944 0.0020373315 -0.0087156575 -0.018329069
0.11585017 -0.068943314 -0.12726231 0.02016946 0.19551966 0.042327844 -0.08003001 -0.14140148
-0.07604304 -0.026866412 0.097859174 -0.00014614919 -0.1033869 -0.05017822 0.026401225 0.011784544
0.05980762 0.03627343 -0.008498678 0.0020918758 -0.044684652 0.018618738 0.03222815 -0.01240209
-0.027294038 -0.07741896 0.030746346 -0.021750234 -0.06667107 -0.012270615 -0.0077475924 0.017224083
-0.0041024364 -0.060429804 0.07914476 -0.030737322 -0.0034329444 -0.05346788 -0.015116497 -0.02493873
-0.055380546 0.008378875 0.004641502 0.012536877 -0.13354166 0.043600496 -0.051548872 0.008035465
0.16378061 0.087862134 -0.100541785 0.12842445 0.04115901 0.0471454 -0.11766052 0.19805357
-0.07415041 -0.02314268 -0.006534318 -0.045840126 -0.00831288 -0.025641311 0.020486414 0.006344146
0.051563215 0.007450923 -0.042659163 0.00598603 0.012880031 -0.025591444 -0.022039209 0.0711157
0.013760409 0.0044412017 0.032230597 -0.022970911 0.010429077 -0.015827775 0.0006662947 0.023191698
0.038006507 0.093646504 -0.1646038 -0.025860475 -0.008061851 -0.026119817 -0.01716631 -0.08436304
0.00742195 0.013791508 -0.07161129 0.0061316653 0.011159489 0.032549787 0.026013684 0.010034446
00000000: 77b3 2c3c 81dc 97bc f1cd edbc 8ac9 c0bc
00000010: 56cb 55bd dbd6 a1bc 2225 5c3c 31fe 4abb
00000020: 78d4 f33c 026a c9bc 82a8 dc3c 6be9 563d
00000030: 00cb db3d 8e73 84bc bbf0 3cbc c324 94bc
00000040: bd53 efbc c60f 1f3c f4ca 0abe 0246 5c3c
00000050: a794 e23d 7b62 f73c c8fa 91b9 6464 c1bc
00000060: e01c 1abc 983c 193d 083d b7bd 66b0 7f3d
00000070: 8973 273d 1b78 353d 0e6f a9bb cd62 713c
00000080: 524c f0ba 4912 5cbc 7a8b 953d 4872 1dbc
00000090: 80e2 c73b f3ee 7abc f1b2 37bb c743 b33d
000000a0: 4b66 86bb 8ff3 a63c a98b 803b 53a4 8c3d
000000b0: b591 a73d bbff 55bc 7eb7 67bd 6655 3c3c
000000c0: ec3b ba3c 2426 703c c3cf 5a3e cccf cbbb
000000d0: bf25 ef3d 0fbb a13d 063b 8b3d 6927 bd3d
000000e0: 0f72 88bd 6da1 283d 1f3b f2bc 7624 683d
000000f0: 7ffb 16be c45b 823c 030c 5dbd 1b1b d33d
00000100: fcf1 7dbb daf4 d73a d6dd 083e a9af 7abd
00000110: 311e 1fbd 9ed9 fdbc 713a 07bc b114 84bd
00000120: 124e eabd d27d a0bd e5da 4dbd 7f1d f93b
00000130: f4ad 4dbe 66dc 463d 5970 efbd b1f0 30be
00000140: 0e37 7abd 684d e1ba ecf3 c0bd c1a3 dfbb
00000150: eb9a 81bd 1d92 f7bb 4570 1bbd 8e37 d83b
00000160: 7a9b 2cbd 1c32 ae3c 44fc 763e 0654 88bc
00000170: a2f5 573c bd02 f33d bc8b 7e3d 6b07 adbd
00000180: 8396 3c3c a7bc 9dbd 75cb 643e 49c7 58bb
00000190: 49a9 223e a81a 1b3e 737e 21bd 2b0c 04be
000001a0: 7b35 223d 81c4 c93c 69d0 8c3d 90ef a83a
000001b0: b09d d33c 10c2 133d 76f0 19bc ed29 313c
000001c0: 3559 683d a4d6 15bc ccce b3bd b219 023c
000001d0: 036c 173c 9794 883c 5ac8 973c 52f5 a53a
000001e0: e042 06bd d846 a4bc c052 36be d978 14bc
000001f0: bf19 ad3c a27d 37bc 7044 c0bc e07d d1bb
00000200: 490d 2bbd b858 9f3d d983 873e 75be 6abd
00000210: 4852 4f3e 5162 e5bd bf8e 163d bb7c f13d
00000220: 2377 2abd 8aed 0e3c daca 4f3d 8715 983c
00000230: 2022 9c3c 2892 873d 573c 313b 49a7 d03c
00000240: e94e 05bd 0a44 32bc 8248 083d 884c 93bc
00000250: e2b3 a6bc 89f6 22bd 547a 4b3b d9b7 67bd
00000260: 71bd 923b b7f8 acbd 740e abbd 3a38 233d
00000270: 93bd cabd c084 053b 1ecc 0ebc d826 96bc
00000280: db42 ed3d 2732 8dbd 0d51 02be 6c3a a53c
00000290: 4e36 483e f65f 2d3d c6e6 a3bd 8dcb 10be
000002a0: 74bc 9bbd f316 dcbc 646a c83d a03f 19b9
000002b0: 83bc d3bd ad87 4dbd 6247 d83c f613 413c
000002c0: d6f8 743d 7393 143d 0a3e 0bbc da17 093b
000002d0: 4107 37bd 5386 983c aa01 043d 2332 4bbc
000002e0: bf97 dfbc d58d 9ebd c3df fb3c 8c2d b2bc
000002f0: d88a 88bd b10a 49bc 84df fdbb 8519 8d3c
00000300: bb6d 86bb 3e85 77bd a616 a23d d6cc fbbc
00000310: 40fb 60bb 2301 5bbd 2fab 77bc 4f4c ccbc
00000320: b6d6 62bd 8d47 093c be17 983b 7967 4d3c
00000330: 25bf 08be 6f96 323d e924 53bd 2fa7 033c
00000340: 1bb6 273e 10f1 b33d dae8 cdbd b381 033e
00000350: 5a96 283d 891b 413d 00f8 f0bd 8ece 4a3e
00000360: 2cdc 97bd b895 bdbc d51d d6bb dbc2 3bbd
00000370: bf32 08bc ba0d d2bc 20d3 a73c 8ee2 cf3b
00000380: f333 533d df26 f43b 60bb 2ebd 7626 c43b
00000390: c406 533c 26a5 d1bc 928b b4bc 1ca5 913d
000003a0: 5773 613c 8087 913b 3b04 043d 7e2d bcbc
000003b0: b8de 2a3c 40a9 81bc 48aa 2e3a 84fc bd3c
000003c0: b6ac 1b3d bdc9 bf3d e68d 28be 59d9 d3bc
000003d0: db15 04bc 3af9 d5bc 5da0 8cbc 88c6 acbd
000003e0: d433 f33b c7f5 613c f1a8 92bd 23ec c83b
000003f0: 4ad6 363c ed52 053d a61a d53c 8467 243c

n1.2.bias f4 [9600]
-0.26285484 -0.29165635 -0.32863447 0.26782 0.14010645 -0.11509733 0.25225452 -0.14511392
-0.11522031 -0.105837524 0.118678875 0.17499413 -0.18669924 -0.05535135 0.2326129 -0.23375629
0.15100962 0.2550336 -0.31004953 -0.01100063 0.35287505 0.16971911 -0.15176544 -0.052100696
-0.17426313 -0.06868544 -0.029048748 0.0014833633 -0.13705233 -0.04438129 -0.21600983 -0.21091133
-0.058392107 0.17689027 -0.23696032 0.16882645 -0.29133454 -0.14946038 -0.4314296 -0.23635514
-0.27549443 -0.18880327 0.24952765 0.06005632 -0.36304453 0.29773495 0.11342832 0.10867502
-0.24808736 -0.11054525 0.12041033 -0.20920591 0.07253004 0.0259664 0.2875196 0.18517347
-0.05481716 -0.06962548 -0.34482995 0.2670606 -0.022637095 0.091743454 0.052429043 0.44839284
-0.3323327 0.14979869 0.3161614 -0.24453935 0.060244013 0.09111859 -0.044832576 -0.30406144
0.31450722 0.12962909 0.27882865 -0.17535327 0.3252898 0.15311676 -0.031472355 0.32840958
-0.014926404 -0.025177084 0.171352 0.1333025 0.18621185 -0.18544528 0.27056012 -0.14953466
-0.17376173 0.03643651 0.121948145 -0.09591369 -0.14705686 0.41077712 0.30257282 -0.06313956
-0.28795415 -0.04957938 0.19984242 -0.1575522 0.1375569 0.026464947 -0.025518263 -0.2681989
0.08488641 -0.022034047 -0.2856852 0.3479216 -0.1832394 -0.12797447 -0.27230877 -0.35949907
-0.04898956 0.12880115 0.22066294 -0.2621223 0.12238458 -0.14973061 -0.28723496 -0.18509287
0.1657668 0.03513651 -0.17543802 -0.058726102 0.2789487 0.010608642 -0.060578145 -0.1509426
0.13641635 -0.19188868 -0.05253285 0.2334738 -0.000118043856 0.08477205 0.20130938 0.27113143
0.09128099 0.25657073 0.33623397 0.042670406 -0.1258672 -0.24952802 0.2660875 0.29812217
0.26304227 -0.2846036 -0.061783787 -0.15941691 0.31455263 0.0027857495 -0.02761529 0.006458781
0.032048337 0.02942508 0.3083608 0.254753 0.36734918 0.3505228 -0.103899285 0.14866704
-0.1341582 0.15342572 0.1387347 0.096183054 0.10492931 0.0016741175 -0.28316703 0.16307424
-0.17798616 -0.3153568 0.048275273 -0.16970652 0.26279154 0.18332565 -0.039278444 0.23659472
0.08780649 -0.02092033 0.11066029 -0.22813874 -0.29947093 -0.007545557 -0.13032177 0.24305527
-0.06475884 0.303911 0.29507354 -0.3005025 0.19930357 0.033209655 0.26726204 -0.1624218
0.19234662 -0.032998618 -0.24106091 0.19447207 -0.076979354 -0.23592307 0.23318464 0.0652777
0.24446647 0.02045881 -0.05245839 -0.03715472 -0.057005044 0.10442726 -0.21761253 -0.06112807
-0.018396586 0.06668223 0.18586305 -0.21581607 0.19875202 -0.1676646 -0.13736726 -0.2335757
0.28973076 -0.35835287 0.23292448 -0.00022878591 -0.25623497 0.01113654 -0.017879149 -0.12582864
0.20515783 -0.36673927 -0.3471365 -0.013806618 -0.014029114 -0.17149313 0.08846375 0.27853525
-0.2263829 -0.30348393 0.22143517 -0.12933344 -0.12926613 0.13920645 -0.18921997 -0.3222088
-0.09619863 0.052645136 0.30009478 -0.047719404 0.31676286 -0.33378142 0.1569207 -0.054912712
0.06126286 0.16670069 -0.2662648 0.22035317 -0.28570917 -0.26362628 -0.18782163 0.2287991
00000000: e994 86be fb53 95be c742 a8be b41f 893e
00000010: 1178 0f3e 26b8 ebbd 8127 813e be98 14be
00000020: a0f8 ebbd 58c1 d8bd e90d f33d a931 333e
00000030: 162e 3fbe 19b8 62bd 1332 6e3e cf5d 6fbe
00000040: 44a2 1a3e c493 823e d0be 9ebe fd3b 34bc
00000050: 0aac b43e d9ca 2d3e 6668 1bbe 8a67 55bd
00000060: 0972 32be f4aa 8cbd a4f7 edbc 6a6d c23a
00000070: 7257 0cbe 28c9 35bd ae31 5dbe 24f9 57be
00000080: 902c 6fbd b922 353e baa5 72be d7e0 2c3e
00000090: cd29 95be 240c 19be 57e4 dcbe 1507 72be
000000a0: 9b0d 8dbe a555 41be 2d84 7f3e 9efd 753d
000000b0: f9e0 b9be b770 983e 1b4d e83d 0291 de3d
000000c0: 9d0a 7ebe 8c65 e2bd b199 f63d 133a 56be
000000d0: a18a 943d 7db7 d43c c535 933e 1d9e 3d3e
000000e0: f587 60bd ce97 8ebd 8d8d b0be 2bbc 883e
000000f0: 6e71 b9bc fee3 bb3d d6bf 563d bf93 e53e
00000100: 8327 aabe d464 193e e8df a13e 8668 7abe
00000110: 6dc2 763d 629c ba3d 5da2 37bd f1ad 9bbe
00000120: 1707 a13e 7dbd 043e a1c2 8e3e cf8f 33be
00000130: 628c a63e a4ca 1c3e 28e9 00bd 4d25 a83e
00000140: e08d 74bc 2c40 cebc e676 2f3e 7380 083e
00000150: 52ae 3e3e 5ee5 3dbe db86 8a3e 9d1f 19be
00000160: 98ee 31be 733e 153d f3bf f93d 666e c4bd
00000170: 1396 16be 6151 d23e d3ea 9a3e 504f 81bd
00000180: ba6e 93be bf13 4bbd 7ea3 4c3e 5d55 21be
00000190: b7db 0c3e 04cd d83c ad0b d1bc 5e51 89be
000001a0: edd8 ad3d bf80 b4bc 5545 92be c822 b23e
000001b0: 1ca3 3bbe bd0b 03be 0e6c 8bbe 4310 b8be
000001c0: 47a9 48bd 73e4 033e 77f5 613e e534 86be
000001d0: c4a4 fa3d fb52 19be 7610 93be fc88 3dbe
000001e0: c6be 293e 4deb 0f3d 06a6 33be c88a 70bd
000001f0: 5dd2 8e3e dfcf 2d3c ca20 78bd b290 1abe
00000200: bab0 0b3e 777e 44be b02c 57bd c113 6f3e
00000210: 508e f7b8 f89c ad3d 0c24 4e3e bdd1 8a3e
00000220: 87f1 ba3d 3d5d 833e dc26 ac3e 2ac7 2e3d
00000230: 55e3 00be 4684 7fbe 9f3c 883e 78a3 983e
00000240: 7aad 863e 90b7 91be ff10 7dbd 303e 23be
00000250: 0b0d a13e 1f91 363b 7639 e2bc 2fa4 d33b
00000260: 1e45 033d de0c f13c 77e1 9d3e fc6e 823e
00000270: 3115 bc3e b977 b33e 26c9 d4bd 2c3c 183e
00000280: c460 09be a21b 1d3e 7810 0e3e 9ffb c43d
00000290: 2ee5 d63d 106e db3a 45fb 90be effc 263e
000002a0: 0142 36be 7276 a1be 4bbc 453d 8cc7 2dbe
000002b0: 9d8c 863e b8b9 3b3e 6fe2 20bd e345 723e
000002c0: e4d3 b33d 1d61 abbc dda1 e23d 349d 69be
000002d0: 4154 99be b840 f7bb 1273 05be 7be3 783e
000002e0: 48a0 84bd 399a 9b3e e113 973e 77db 99be
000002f0: 3c16 4c3e d906 083d 92d6 883e e651 26be
00000300: 83f6 443e 8f29 07bd acd8 76be b023 473e
00000310: 5aa7 9dbd d195 71be f4c7 6e3e 51b0 853d
00000320: 6b55 7a3e 3c99 a73c 9cde 56bd 8c2f 18bd
00000330: 1f7e 69bd f6dd d53d d2d5 5ebe 6d61 7abd
00000340: 70b4 96bc b190 883d e252 3e3e e3fe 5cbe
00000350: a685 4b3e 45b0 2bbe 01aa 0cbe 782e 6fbe
00000360: 9757 943e 077a b7be c183 6e3e 40e6 6fb9
00000370: 3b31 83be 0976 363c 4b77 92bc 39d9 00be
00000380: e514 523e 40c5 bbbe e0bb b1be 2735 62bc
00000390: 5eda 65bc e59b 2fbe 7c2c b53d 2c9c 8e3e
000003a0: ebd0 67be 3f62 9bbe e7bf 623e fc6f 04be
000003b0: 575e 04be 238c 0e3e e1c2 41be 8df8 a4be
000003c0: ca03 c5bd 6da2 573d 06a6 993e 6c75 43bd
000003d0: be2e a23e 66e5 aabe d2af 203e 27ec 60bd
000003e0: c4ee 7a3d 96b3 2a3e dc53 88be 43a4 613e
000003f0: 7948 92be 06fa 86be 5054 40be 504a 6a3e

conv1.bias f4 [32]
-0.05563061 0.038969256 -0.003438904 0.047450732 0.08521404 -0.08243856 0.03818483 0.04546711
0.043213006 0.038445875 -0.012993354 0.10500301 0.044619363 -0.069295116 -0.11056185 0.022684248
0.10341653 0.008875234 0.06737438 -0.018363936 -0.0466581 0.11002398 -0.01102544 0.062137358
0.08279378 -0.0717862 -0.077773586 -0.016745843 -0.095516324 -0.020364221 0.06561717 -0.021668838
00000000: ecdc 63bd 3a9e 1f3d 3c5f 61bb b35b 423d
00000010: b384 ae3d 8cd5 a8bd b267 1c3d b83b 3a3d
00000020: 1f00 313d 6c79 1d3d 14e2 54bc d10b d73d
00000030: cbc2 363d 99ea 8dbd 406e e2bd 51d4 b93c
00000040: 0ccc d33d 6e69 113c 94fb 893d f76f 96bc
00000050: 901c 3fbd 4154 e13d 0ca4 34bc be83 7e3d
00000060: c98f a93d a504 93bd c247 9fbd 942e 89bc
00000070: 109e c3bd ded2 a6bc 4b62 863d d982 b1bc

conv1.nn.0.weight f4 [8, 300]
0.053508583 -0.020644983 0.04859161 0.02876041 -0.057753265 0.09938415 -0.03813555 0.02760534
0.05633428 0.073527865 -0.011610556 0.091328144 -0.013844469 0.008390039 0.044731963 0.0637807
-0.019517224 0.03321801 0.11977934 -0.025594475 0.016222091 -0.04819019 -0.05897521 0.079205245
0.0068768607 -0.06449558 0.114954844 0.033991575 -0.0075629726 -0.03610223 -0.0068878154 0.026112996
-0.04479123 -0.008745256 -0.015428293 -0.007389992 -0.029143145 -0.036779642 0.032183465 -0.047324654
-0.047518827 -0.0117235305 0.08960809 -0.00047533622 0.015870523 0.07998161 0.006607165 0.04470527
0.029542044 -0.03232823 0.10848399 -0.00765308 0.027329678 0.018504111 -0.04133144 0.08254572
0.006008934 0.061716843 0.03997244 0.07335307 0.050386913 -0.024929281 0.05511132 0.09376335
-0.0105219055 -0.054295067 -0.0040790876 -0.04107393 -0.0033040228 2.6161957e-05 0.016010351 -0.038162887
0.015892154 -0.00024900492 0.051981077 -0.016774723 -0.060616825 -0.023797782 0.012628127 0.017459778
-0.009097375 -0.010627381 -0.008444754 0.09425837 0.0033909897 0.004644355 -0.01744349 0.00062254333
0.00016156677 0.05103579 -0.011709713 0.011360117 -0.008120957 0.0076374887 -0.0027732956 0.016257199
0.012979193 -0.016731177 0.012572574 0.0030986376 0.0011244786 -0.001746047 0.005382074 0.053747833
-0.0027301293 0.01123957 0.010104597 -0.0016617142 0.06963732 0.0020082071 -0.017960044 0.006988285
0.03175796 0.0059565124 0.001869281 -0.0142953405 0.00044890505 -0.004244959 0.010410667 -0.057334267
0.019297896 -0.0043126475 0.011579293 -0.008343952 0.0065939687 0.00745997 0.003111185 -0.010858244
0.002627365 0.005625121 0.008058523 0.0028292465 -0.0073835426 0.0033916454 -0.0039639287 -0.012739143
0.0063033286 -0.00029068848 0.0011416012 -0.00058682705 -0.001437002 0.022785094 -0.0038198987 -0.008195504
1.0424817e-05 -0.0046608285 0.006245747 0.0047748554 -0.011530543 0.003712869 0.002579951 -0.004089622
0.001318322 -0.02439708 0.0055925893 -0.013555334 -0.010060684 0.0070048524 0.002639085 -0.0034814065
0.04455453 0.022847584 -0.011090022 -0.00057824 -0.0018246644 0.0004673308 0.0035481546 -0.06160688
-0.00021032913 -0.02170911 -0.008048273 0.0062533175 -0.0037361728 0.013928281 0.00073617697 -0.0021687564
-0.0014513863 -0.012585895 0.012099198 -0.0072669648 -0.013139715 -0.03492305 -0.019531116 -0.0013506155
-1.0358228e-05 -0.0050767474 0.006455349 -0.006474455 0.0063905916 0.0009520567 -0.007961663 0.004625418
-0.004020047 0.05302803 0.0037512537 -0.024786713 0.005513279 0.010951621 -0.003306198 0.0017137124
-0.00048356026 0.0062126815 0.0004201275 0.007458872 -0.017207062 -0.0017007766 -0.009076273 -0.0019121584
-0.005766699 0.06947795 0.007854911 -0.014191031 0.06390976 -0.013137886 -0.00068693573 -0.005127579
0.006208761 0.0027999568 0.027755413 -0.0023045626 -0.0015864038 -0.0028254213 0.00617925 -0.009065377
-0.0024280595 -0.006221324 -0.004433076 0.002821517 0.012689622 0.059521314 -0.0008822294 -0.009761314
0.0026229185 -0.012037206 -0.016512312 0.009019386 -0.004015498 0.0001295997 -0.0013311752 0.0043900507
0.0060398355 0.0047341967 -0.009388732 -0.019384347 0.008370642 0.010456815 -0.013198091 -0.0020833542
0.012093041 0.035951868 0.000352717 0.006657796 -0.003914478 0.0073861773 0.0053204703 0.0020458759
00000000: d12b 5b3d ab1f a9bc ff07 473d f49a eb3c
00000010: b08e 6cbd eb89 cb3d 0634 1cbd 9824 e23c
00000020: c6be 663d c795 963d 343a 3ebc 400a bb3d
00000030: e9d3 62bc 6076 093c dd38 373d 759f 823d
00000040: 96e2 9fbc 9c0f 083d df4e f53d 81ab d1bc
00000050: 31e4 843c 1463 45bd fd8f 71bd 5c36 a23d
00000060: 4a57 e13b 4216 84bd 726d eb3d c03a 0b3d
00000070: d0d2 f7bb efdf 13bd 2fb3 e1bb ecea d53c
00000080: 0277 37bd 4348 0fbc f3c6 7cbc bf27 f2bb
00000090: 9bbd eebc 40a6 16bd cfd2 033d 7fd7 41bd
000000a0: 1aa3 42bd 0d14 40bc 7284 b73d 8c36 f9b9
000000b0: e602 823c 66cd a33d eb80 d83b e01c 373d
000000c0: 2802 f23c 9b6a 04bd db2c de3d b0c6 fabb
000000d0: 7de2 df3c ef95 973c 284b 29bd bb0d a93d
000000e0: 98e6 c43b cdca 7c3d 24ba 233d 223a 963d
000000f0: 8262 4e3d 7e38 ccbc 68bc 613d 0007 c03d
00000100: 1264 2cbc 8164 5ebd dea9 85bb 233d 28bd
00000110: 4e88 58bb 6076 db37 2428 833c b050 1cbd
00000120: 4330 823c e08c 82b9 1cea 543d 256b 89bc
00000130: 5949 78bd 91f3 c2bc 34e6 4e3c cf07 8f3c
00000140: 280d 15bc 771e 2ebc de5b 0abc 880a c13d
00000150: 5e3b 5e3b ac2f 983b a6e5 8ebc 2d32 233a
00000160: 406a 2939 e80a 513d 19da 3fbc c91f 3a3c
00000170: c30d 05bc e643 fa3b 2ec0 35bb d12d 853c
00000180: aea6 543c d20f 89bc 33fd 4d3c 8312 4b3b
00000190: 3e63 933a 9edb e4ba 1c5c b03b b026 5c3d
000001a0: f8eb 32bb 2c26 383c c08d 253c e0cd d9ba
000001b0: 039e 8e3d 209c 033b f120 93bc fcfd e43b
000001c0: a214 023d d92e c33b aa02 f53a 0137 6abc
000001d0: 045b eb39 4c19 8bbb 8191 2a3c 56d7 6abd
000001e0: 9f16 9e3c 1c51 8dbb 13b7 3d3c 12b5 08bc
000001f0: 3812 d83b c472 f43b 06e5 4b3b c7e6 31bc
00000200: df2f 2c3b ef52 b83b e507 043c e16a 393b
00000210: a5f1 f1bb 5e46 5e3b d8e3 81bb d7b7 50bc
00000220: 278c ce3b 8c67 98b9 c8a1 953a 4cd5 19ba
00000230: c959 bcba cea7 ba3c 4457 7abb 6f46 06bc
00000240: 40e6 2e37 ddb9 98bb 20a9 cc3b 6476 9c3b
00000250: 9aea 3cbc 9b53 733b 6514 293b 3c02 86bb
00000260: 8ccb ac3a 63dc c7bc 0a42 b73b 3117 5ebc
00000270: 91d5 24bc f688 e53b 80f4 2c3b 4f28 64bb
00000280: d07e 363d db2a bb3c ecb2 35bc 0895 17ba
00000290: 9429 efba 1404 f539 2888 683b 7f57 7cbd
000002a0: cc8b 5cb9 4ed7 b1bc e7dc 03bc a1e8 cc3b
000002b0: 94da 74bb 7233 643c 00fc 403a b221 0ebb
000002c0: 713c beba 1235 4ebc b73b 463c b81f eebb
000002d0: f647 57bc 790b 0fbd b8ff 9fbc 2307 b1ba
000002e0: 40c8 2db7 d85a a6bb 6487 d33b aa27 d4bb
000002f0: 2b68 d13b 7293 793a a371 02bc d290 973b
00000300: 99ba 83bb eb33 593d 98d7 753b 810d cbbc
00000310: bca8 b43b 6e6e 333c ccac 58bb a59e e03a
00000320: 5c86 fdb9 c093 cb3b 8f44 dc39 8e69 f43b
00000330: d3f5 8cbc 98ec deba a6b4 14bc 64a1 faba
00000340: 94f6 bcbb 754a 8e3d e2b1 003c 8081 68bc
00000350: 1fe3 823d 4a40 57bc 7a13 34ba 4005 a8bb
00000360: dd72 cb3b 7b7f 373b 525f e33c 2508 17bb
00000370: e1ee cfba b42a 39bb 4e7b ca3b f286 14bc
00000380: 1420 1fbb 40dc cbbb 5643 91bb 33e9 383b
00000390: 22e8 4f3c 9fcc 733d 6a45 67ba ebed 1fbc
000003a0: 45e5 2b3b b437 45bc d444 87bc 0cc6 133c
000003b0: 7094 83bb 28e5 0739 d47a aeba 6ada 8f3b
000003c0: d0e9 c53b 5221 9b3b 32d3 19bc eccb 9ebc
000003d0: 0425 093c 1053 2b3c ce3c 58bc e288 08bb
000003e0: e421 463c 4442 133d e0ec b839 a429 da3b
000003f0: 0545 80bb bf07 f23b 5757 ae3b 1a14 063b

conv1.nn.2.weight f4 [9600, 8]
0.010540835 -0.018537762 -0.029028865 -0.023533601 -0.05219587 -0.019755771 0.0134365875 -0.0030974264
0.029764399 -0.024586681 0.02693582 0.0524687 0.107320786 -0.016168382 -0.011532004 -0.018083936
-0.029214734 0.0097083505 -0.13553983 0.013444426 0.110635094 0.030198326 -0.00027843402 -0.02360744
-0.009406298 0.037411302 -0.08947188 0.062424086 0.040881667 0.044303995 -0.0051707095 0.014733029
-0.0018333292 -0.013432094 0.07301994 -0.009609766 0.006099999 -0.015315759 -0.0028030241 0.08753162
-0.0041015497 0.02037981 0.003922899 0.0686728 0.08182088 -0.013061459 -0.056571476 0.01149497
0.022733651 0.014657531 0.21368317 -0.0062198397 0.11677121 0.07897007 0.06798367 0.092360325
-0.0666238 0.041169573 -0.029569207 0.056675397 -0.14744376 0.015912898 -0.053966533 0.10307904
-0.003874897 0.001647617 0.13365874 -0.06120268 -0.038847152 -0.030987557 -0.00825368 -0.06449259
-0.11440672 -0.07836498 -0.050257582 0.007602393 -0.20085889 0.048550032 -0.116913505 -0.17279316
-0.06108766 -0.0017189207 -0.094215244 -0.006824941 -0.063283764 -0.00755526 -0.037948865 0.0065984195
-0.04214046 0.021264128 0.24119669 -0.016641628 0.013181122 0.11865757 0.06214498 -0.084486805
0.011510494 -0.07701998 0.22343238 -0.0033077768 0.1588489 0.15146887 -0.039427232 -0.12895267
0.039601784 0.024629833 0.068756886 0.0012888778 0.025832027 0.036073744 -0.009395709 0.010813219
0.0567257 -0.009145413 -0.08779678 0.007940697 0.009242061 0.016672416 0.018528152 0.0012661612
-0.03277862 -0.020053312 -0.17805004 -0.009062015 0.02113044 -0.011199387 -0.023470134 -0.0063931793
-0.041760717 0.07780594 0.2646778 -0.05731054 0.20246232 -0.11200393 0.036757227 0.117913686
-0.041617524 0.008723626 0.050730564 0.018564953 0.01905924 0.06619674 0.0027044022 0.025470393
-0.032545958 -0.01088048 0.033272274 -0.017980829 -0.020349447 -0.039785895 0.0031048255 -0.056571815
0.0044781496 -0.08445876 -0.08352366 0.039848544 -0.0989944 0.0020373315 -0.0087156575 -0.018329069
0.11585017 -0.068943314 -0.12726231 0.02016946 0.19551966 0.042327844 -0.08003001 -0.14140148
-0.07604304 -0.026866412 0.097859174 -0.00014614919 -0.1033869 -0.05017822 0.026401225 0.011784544
0.05980762 0.03627343 -0.008498678 0.0020918758 -0.044684652 0.018618738 0.03222815 -0.01240209
-0.027294038 -0.07741896 0.030746346 -0.021750234 -0.06667107 -0.012270615 -0.0077475924 0.017224083
-0.0041024364 -0.060429804 0.07914476 -0.030737322 -0.0034329444 -0.05346788 -0.015116497 -0.02493873
-0.055380546 0.008378875 0.004641502 0.012536877 -0.13354166 0.043600496 -0.051548872 0.008035465
0.16378061 0.087862134 -0.100541785 0.12842445 0.04115901 0.0471454 -0.11766052 0.19805357
-0.07415041 -0.02314268 -0.006534318 -0.045840126 -0.00831288 -0.025641311 0.020486414 0.006344146
0.051563215 0.007450923 -0.042659163 0.00598603 0.012880031 -0.025591444 -0.022039209 0.0711157
0.013760409 0.0044412017 0.032230597 -0.022970911 0.010429077 -0.015827775 0.0006662947 0.023191698
0.038006507 0.093646504 -0.1646038 -0.025860475 -0.008061851 -0.026119817 -0.01716631 -0.08436304
0.00742195 0.013791508 -0.07161129 0.0061316653 0.011159489 0.032549787 0.026013684 0.010034446
00000000: 77b3 2c3c 81dc 97bc f1cd edbc 8ac9 c0bc
00000010: 56cb 55bd dbd6 a1bc 2225 5c3c 31fe 4abb
00000020: 78d4 f33c 026a c9bc 82a8 dc3c 6be9 563d
00000030: 00cb db3d 8e73 84bc bbf0 3cbc c324 94bc
00000040: bd53 efbc c60f 1f3c f4ca 0abe 0246 5c3c
00000050: a794 e23d 7b62 f73c c8fa 91b9 6464 c1bc
00000060: e01c 1abc 983c 193d 083d b7bd 66b0 7f3d
00000070: 8973 273d 1b78 353d 0e6f a9bb cd62 713c
00000080: 524c f0ba 4912 5cbc 7a8b 953d 4872 1dbc
00000090: 80e2 c73b f3ee 7abc f1b2 37bb c743 b33d
000000a0: 4b66 86bb 8ff3 a63c a98b 803b 53a4 8c3d
000000b0: b591 a73d bbff 55bc 7eb7 67bd 6655 3c3c
000000c0: ec3b ba3c 2426 703c c3cf 5a3e cccf cbbb
000000d0: bf25 ef3d 0fbb a13d 063b 8b3d 6927 bd3d
000000e0: 0f72 88bd 6da1 283d 1f3b f2bc 7624 683d
000000f0: 7ffb 16be c45b 823c 030c 5dbd 1b1b d33d
00000100: fcf1 7dbb daf4 d73a d6dd 083e a9af 7abd
00000110: 311e 1fbd 9ed9 fdbc 713a 07bc b114 84bd
00000120: 124e eabd d27d a0bd e5da 4dbd 7f1d f93b
00000130: f4ad 4dbe 66dc 463d 5970 efbd b1f0 30be
00000140: 0e37 7abd 684d e1ba ecf3 c0bd c1a3 dfbb
00000150: eb9a 81bd 1d92 f7bb 4570 1bbd 8e37 d83b
00000160: 7a9b 2cbd 1c32 ae3c 44fc 763e 0654 88bc
00000170: a2f5 573c bd02 f33d bc8b 7e3d 6b07 adbd
00000180: 8396 3c3c a7bc 9dbd 75cb 643e 49c7 58bb
00000190: 49a9 223e a81a 1b3e 737e 21bd 2b0c 04be
000001a0: 7b35 223d 81c4 c93c 69d0 8c3d 90ef a83a
000001b0: b09d d33c 10c2 133d 76f0 19bc ed29 313c
000001c0: 3559 683d a4d6 15bc ccce b3bd b219 023c
000001d0: 036c 173c 9794 883c 5ac8 973c 52f5 a53a
000001e0: e042 06bd d846 a4bc c052 36be d978 14bc
000001f0: bf19 ad3c a27d 37bc 7044 c0bc e07d d1bb
00000200: 490d 2bbd b858 9f3d d983 873e 75be 6abd
00000210: 4852 4f3e 5162 e5bd bf8e 163d bb7c f13d
00000220: 2377 2abd 8aed 0e3c daca 4f3d 8715 983c
00000230: 2022 9c3c 2892 873d 573c 313b 49a7 d03c
00000240: e94e 05bd 0a44 32bc 8248 083d 884c 93bc
00000250: e2b3 a6bc 89f6 22bd 547a 4b3b d9b7 67bd
00000260: 71bd 923b b7f8 acbd 740e abbd 3a38 233d
00000270: 93bd cabd c084 053b 1ecc 0ebc d826 96bc
00000280: db42 ed3d 2732 8dbd 0d51 02be 6c3a a53c
00000290: 4e36 483e f65f 2d3d c6e6 a3bd 8dcb 10be
000002a0: 74bc 9bbd f316 dcbc 646a c83d a03f 19b9
000002b0: 83bc d3bd ad87 4dbd 6247 d83c f613 413c
000002c0: d6f8 743d 7393 143d 0a3e 0bbc da17 093b
000002d0: 4107 37bd 5386 983c aa01 043d 2332 4bbc
000002e0: bf97 dfbc d58d 9ebd c3df fb3c 8c2d b2bc
000002f0: d88a 88bd b10a 49bc 84df fdbb 8519 8d3c
00000300: bb6d 86bb 3e85 77bd a616 a23d d6cc fbbc
00000310: 40fb 60bb 2301 5bbd 2fab 77bc 4f4c ccbc
00000320: b6d6 62bd 8d47 093c be17 983b 7967 4d3c
00000330: 25bf 08be 6f96 323d e924 53bd 2fa7 033c
00000340: 1bb6 273e 10f1 b33d dae8 cdbd b381 033e
00000350: 5a96 283d 891b 413d 00f8 f0bd 8ece 4a3e
00000360: 2cdc 97bd b895 bdbc d51d d6bb dbc2 3bbd
00000370: bf32 08bc ba0d d2bc 20d3 a73c 8ee2 cf3b
00000380: f333 533d df26 f43b 60bb 2ebd 7626 c43b
00000390: c406 533c 26a5 d1bc 928b b4bc 1ca5 913d
000003a0: 5773 613c 8087 913b 3b04 043d 7e2d bcbc
000003b0: b8de 2a3c 40a9 81bc 48aa 2e3a 84fc bd3c
000003c0: b6ac 1b3d bdc9 bf3d e68d 28be 59d9 d3bc
000003d0: db15 04bc 3af9 d5bc 5da0 8cbc 88c6 acbd
000003e0: d433 f33b c7f5 613c f1a8 92bd 23ec c83b
000003f0: 4ad6 363c ed52 053d a61a d53c 8467 243c

conv1.nn.2.bias f4 [9600]
-0.26285484 -0.29165635 -0.32863447 0.26782 0.14010645 -0.11509733 0.25225452 -0.14511392
-0.11522031 -0.105837524 0.118678875 0.17499413 -0.18669924 -0.05535135 0.2326129 -0.23375629
0.15100962 0.2550336 -0.31004953 -0.01100063 0.35287505 0.16971911 -0.15176544 -0.052100696
-0.17426313 -0.06868544 -0.029048748 0.0014833633 -0.13705233 -0.04438129 -0.21600983 -0.21091133
-0.058392107 0.17689027 -0.23696032 0.16882645 -0.29133454 -0.14946038 -0.4314296 -0.23635514
-0.27549443 -0.18880327 0.24952765 0.06005632 -0.36304453 0.29773495 0.11342832 0.10867502
-0.24808736 -0.11054525 0.12041033 -0.20920591 0.07253004 0.0259664 0.2875196 0.18517347
-0.05481716 -0.06962548 -0.34482995 0.2670606 -0.022637095 0.091743454 0.052429043 0.44839284
-0.3323327 0.14979869 0.3161614 -0.24453935 0.060244013 0.09111859 -0.044832576 -0.30406144
0.31450722 0.12962909 0.27882865 -0.17535327 0.3252898 0.15311676 -0.031472355 0.32840958
-0.014926404 -0.025177084 0.171352 0.1333025 0.18621185 -0.18544528 0.27056012 -0.14953466
-0.17376173 0.03643651 0.121948145 -0.09591369 -0.14705686 0.41077712 0.30257282 -0.06313956
-0.28795415 -0.04957938 0.19984242 -0.1575522 0.1375569 0.026464947 -0.025518263 -0.2681989
0.08488641 -0.022034047 -0.2856852 0.3479216 -0.1832394 -0.12797447 -0.27230877 -0.35949907
-0.04898956 0.12880115 0.22066294 -0.2621223 0.12238458 -0.14973061 -0.28723496 -0.18509287
0.1657668 0.03513651 -0.17543802 -0.058726102 0.2789487 0.010608642 -0.060578145 -0.1509426
0.13641635 -0.19188868 -0.05253285 0.2334738 -0.000118043856 0.08477205 0.20130938 0.27113143
0.09128099 0.25657073 0.33623397 0.042670406 -0.1258672 -0.24952802 0.2660875 0.29812217
0.26304227 -0.2846036 -0.061783787 -0.15941691 0.31455263 0.0027857495 -0.02761529 0.006458781
0.032048337 0.02942508 0.3083608 0.254753 0.36734918 0.3505228 -0.103899285 0.14866704
-0.1341582 0.15342572 0.1387347 0.096183054 0.10492931 0.0016741175 -0.28316703 0.16307424
-0.17798616 -0.3153568 0.048275273 -0.16970652 0.26279154 0.18332565 -0.039278444 0.23659472
0.08780649 -0.02092033 0.11066029 -0.22813874 -0.29947093 -0.007545557 -0.13032177 0.24305527
-0.06475884 0.303911 0.29507354 -0.3005025 0.19930357 0.033209655 0.26726204 -0.1624218
0.19234662 -0.032998618 -0.24106091 0.19447207 -0.076979354 -0.23592307 0.23318464 0.0652777
0.24446647 0.02045881 -0.05245839 -0.03715472 -0.057005044 0.10442726 -0.21761253 -0.06112807
-0.018396586 0.06668223 0.18586305 -0.21581607 0.19875202 -0.1676646 -0.13736726 -0.2335757
0.28973076 -0.35835287 0.23292448 -0.00022878591 -0.25623497 0.01113654 -0.017879149 -0.12582864
0.20515783 -0.36673927 -0.3471365 -0.013806618 -0.014029114 -0.17149313 0.08846375 0.27853525
-0.2263829 -0.30348393 0.22143517 -0.12933344 -0.12926613 0.13920645 -0.18921997 -0.3222088
-0.09619863 0.052645136 0.30009478 -0.047719404 0.31676286 -0.33378142 0.1569207 -0.054912712
0.06126286 0.16670069 -0.2662648 0.22035317 -0.28570917 -0.26362628 -0.18782163 0.2287991
00000000: e994 86be fb53 95be c742 a8be b41f 893e
00000010: 1178 0f3e 26b8 ebbd 8127 813e be98 14be
00000020: a0f8 ebbd 58c1 d8bd e90d f33d a931 333e
00000030: 162e 3fbe 19b8 62bd 1332 6e3e cf5d 6fbe
00000040: 44a2 1a3e c493 823e d0be 9ebe fd3b 34bc
00000050: 0aac b43e d9ca 2d3e 6668 1bbe 8a67 55bd
00000060: 0972 32be f4aa 8cbd a4f7 edbc 6a6d c23a
00000070: 7257 0cbe 28c9 35bd ae31 5dbe 24f9 57be
00000080: 902c 6fbd b922 353e baa5 72be d7e0 2c3e
00000090: cd29 95be 240c 19be 57e4 dcbe 1507 72be
000000a0: 9b0d 8dbe a555 41be 2d84 7f3e 9efd 753d
000000b0: f9e0 b9be b770 983e 1b4d e83d 0291 de3d
000000c0: 9d0a 7ebe 8c65 e2bd b199 f63d 133a 56be
000000d0: a18a 943d 7db7 d43c c535 933e 1d9e 3d3e
000000e0: f587 60bd ce97 8ebd 8d8d b0be 2bbc 883e
000000f0: 6e71 b9bc fee3 bb3d d6bf 563d bf93 e53e
00000100: 8327 aabe d464 193e e8df a13e 8668 7abe
00000110: 6dc2 763d 629c ba3d 5da2 37bd f1ad 9bbe
00000120: 1707 a13e 7dbd 043e a1c2 8e3e cf8f 33be
00000130: 628c a63e a4ca 1c3e 28e9 00bd 4d25 a83e
00000140: e08d 74bc 2c40 cebc e676 2f3e 7380 083e
00000150: 52ae 3e3e 5ee5 3dbe db86 8a3e 9d1f 19be
00000160: 98ee 31be 733e 153d f3bf f93d 666e c4bd
00000170: 1396 16be 6151 d23e d3ea 9a3e 504f 81bd
00000180: ba6e 93be bf13 4bbd 7ea3 4c3e 5d55 21be
00000190: b7db 0c3e 04cd d83c ad0b d1bc 5e51 89be
000001a0: edd8 ad3d bf80 b4bc 5545 92be c822 b23e
000001b0: 1ca3 3bbe bd0b 03be 0e6c 8bbe 4310 b8be
000001c0: 47a9 48bd 73e4 033e 77f5 613e e534 86be
000001d0: c4a4 fa3d fb52 19be 7610 93be fc88 3dbe
000001e0: c6be 293e 4deb 0f3d 06a6 33be c88a 70bd
000001f0: 5dd2 8e3e dfcf 2d3c ca20 78bd b290 1abe
00000200: bab0 0b3e 777e 44be b02c 57bd c113 6f3e
00000210: 508e f7b8 f89c ad3d 0c24 4e3e bdd1 8a3e
00000220: 87f1 ba3d 3d5d 833e dc26 ac3e 2ac7 2e3d
00000230: 55e3 00be 4684 7fbe 9f3c 883e 78a3 983e
00000240: 7aad 863e 90b7 91be ff10 7dbd 303e 23be
00000250: 0b0d a13e 1f91 363b 7639 e2bc 2fa4 d33b
00000260: 1e45 033d de0c f13c 77e1 9d3e fc6e 823e
00000270: 3115 bc3e b977 b33e 26c9 d4bd 2c3c 183e
00000280: c460 09be a21b 1d3e 7810 0e3e 9ffb c43d
00000290: 2ee5 d63d 106e db3a 45fb 90be effc 263e
000002a0: 0142 36be 7276 a1be 4bbc 453d 8cc7 2dbe
000002b0: 9d8c 863e b8b9 3b3e 6fe2 20bd e345 723e
000002c0: e4d3 b33d 1d61 abbc dda1 e23d 349d 69be
000002d0: 4154 99be b840 f7bb 1273 05be 7be3 783e
000002e0: 48a0 84bd 399a 9b3e e113 973e 77db 99be
000002f0: 3c16 4c3e d906 083d 92d6 883e e651 26be
00000300: 83f6 443e 8f29 07bd acd8 76be b023 473e
00000310: 5aa7 9dbd d195 71be f4c7 6e3e 51b0 853d
00000320: 6b55 7a3e 3c99 a73c 9cde 56bd 8c2f 18bd
00000330: 1f7e 69bd f6dd d53d d2d5 5ebe 6d61 7abd
00000340: 70b4 96bc b190 883d e252 3e3e e3fe 5cbe
00000350: a685 4b3e 45b0 2bbe 01aa 0cbe 782e 6fbe
00000360: 9757 943e 077a b7be c183 6e3e 40e6 6fb9
00000370: 3b31 83be 0976 363c 4b77 92bc 39d9 00be
00000380: e514 523e 40c5 bbbe e0bb b1be 2735 62bc
00000390: 5eda 65bc e59b 2fbe 7c2c b53d 2c9c 8e3e
000003a0: ebd0 67be 3f62 9bbe e7bf 623e fc6f 04be
000003b0: 575e 04be 238c 0e3e e1c2 41be 8df8 a4be
000003c0: ca03 c5bd 6da2 573d 06a6 993e 6c75 43bd
000003d0: be2e a23e 66e5 aabe d2af 203e 27ec 60bd
000003e0: c4ee 7a3d 96b3 2a3e dc53 88be 43a4 613e
000003f0: 7948 92be 06fa 86be 5054 40be 504a 6a3e

pool1.weight f4 [1, 32]
-0.024806313 -0.06742346 0.014939005 -0.08128896 -0.12164061 0.17023242 -0.09282845 -0.08334711
-0.08109949 -0.059299875 -0.00022116047 -0.2042882 -0.08039745 0.060482208 0.16113748 -0.02722923
-0.2506675 0.02857342 -0.10422407 -0.02828105 0.060765993 -0.13813597 -0.03186432 -0.15634744
-0.1329303 0.12290567 0.11135382 0.084427185 0.15643851 0.03328317 -0.14227708 0.015288126
00000000: 9c36 cbbc 5015 8abd bac2 743c d47a a6bd
00000010: b61e f9bd 6851 2e3e d81c bebd e4b1 aabd
00000020: 7d17 a6bd 6de4 72bd 50e7 67b9 ed30 51be
00000030: 6ba7 a4bd 31bc 773d 3901 253e d60f dfbc
00000040: 7e57 80be ce12 ea3c 6e73 d5bd a9ad e7bc
00000050: c3e5 783d 8473 0dbe 2984 02bd 8b19 20be
00000060: e11e 08be f8b5 fb3d 790d e43d 29e8 ac3d
00000070: 6b31 203e ef53 083d 15b1 11be 0c7b 7a3c

n2.0.weight f4 [8, 300]
0.06308947 -0.034357566 0.09402953 -0.02753139 0.06881989 0.07744844 -0.037985247 0.015215783
0.016488118 -0.043744653 0.04625909 0.061424702 0.054143697 0.0003295316 0.042901102 -0.023309698
0.0064473664 -0.042809866 -0.0015668037 0.05177776 -0.040955298 -0.0319073 -0.043765888 0.059949327
-0.058385532 -0.049774233 0.013483478 0.07398541 -0.015564862 -0.030877247 -0.00072057906 -0.009270664
-0.03048563 0.12249257 0.098876365 -0.0046425564 -0.003717498 0.0481571 -0.004272752 0.07047336
-0.016383767 -0.012777233 -0.06031354 0.049001444 -0.0014326186 -0.022676582 -0.022332393 5.549402e-05
-0.0010661053 0.062484097 0.056778718 0.08183836 0.036858175 -0.035050355 0.08362669 -0.035628196
0.015070658 -0.020718807 -0.019520085 0.0937673 0.022107136 -0.0016099791 -0.0005459599 -0.015169855
-0.044922236 0.044626378 -0.0018100967 0.038674176 -0.0017647699 0.0056601083 -0.0016911943 -0.022035712
-0.0054716733 0.044607956 -0.0033722732 0.0072017615 -0.01911713 -0.048211038 0.10565768 0.0019028371
-0.03904934 -0.0025175125 -0.002426933 -0.030720077 -0.00066173763 0.003230658 -0.0056412206 -0.014919059
-0.0032494785 0.0032534476 0.0005664872 0.0063387835 0.0052838447 -0.0027438053 -0.004592702 0.0027686378
-0.0019348087 -0.0012540072 -0.010570918 -0.0118872365 -0.0019808938 -0.0035637156 -0.0108615905 -0.01062991
0.0048287422 -0.0022892766 0.001424524 0.0003564487 -0.011236064 -0.0087115085 0.008664987 -0.03149625
-0.00052944757 0.004509504 -0.0056864074 -0.0019113533 -0.0007360935 -0.0005033694 0.0015173198 -0.024627885
-0.0023905127 -0.00061331014 0.0029059025 -0.0023173746 0.0024155735 -0.0039533637 -0.00497471 -0.00050276413
0.001476695 -0.0017682698 -0.00725746 0.0004092279 0.00310739 0.009211922 0.0029866274 0.03075895
-0.003893732 -0.004833902 0.046476472 -0.00023903756 -0.010234881 0.004046931 0.00027494668 0.00061260187
-0.0019909262 0.0026987959 -0.0061937985 0.007697661 -0.016724445 6.884057e-05 -0.001020523 -0.0014515392
-0.0035847505 -0.016132774 -0.0025684927 0.001808288 0.009745541 -0.0036826301 -0.0019809767 -0.002085072
-0.007821024 0.036873277 0.004457731 -0.0004923921 -0.002034381 -0.00041338638 -0.0056584463 -0.005120788
-0.0016846033 -0.005341037 0.039361723 -0.004949649 0.007616553 0.0066632833 0.0014944617 0.010371845
-0.001056359 -0.0002628581 0.006165941 0.006077538 0.0056187017 0.05700795 -0.0038537036 0.0032419628
-0.0008344337 0.0058070123 -0.0041700783 -0.0025640596 -0.005301756 0.0123679135 -0.027248155 0.0008187004
0.005485588 0.021791631 0.0031207998 0.02122247 0.0021577033 -0.0017725595 0.0029730035 -0.0030205422
0.0023896152 -0.0032691988 -0.0031133285 -0.003249844 -0.0059500663 0.0034693964 -0.00094535045 -0.018880855
-0.0010862374 0.010173327 -0.001783105 -0.008713702 0.0063209566 -0.0009037729 -0.005364298 0.0021593994
0.002554282 -0.00090265233 0.019854235 -0.0029116243 -0.028934894 -0.0015185421 0.015736748 0.024641817
0.0013304205 -0.005547435 0.004600354 -0.0031434475 0.025273276 0.10195885 -0.00039671676 -9.9953264e-05
-0.00549914 0.0019067784 0.08183173 0.004345779 0.002549515 0.0007926012 -0.0011547484 0.0060388143
0.008362906 -0.00070868246 -0.018218748 -0.0025983865 -0.005257188 0.007929548 0.0025651115 -0.00071363803
0.0052459226 -0.0074769217 -0.002626129 -0.0015890582 0.011679358 -0.00041130392 -0.03292237 -0.003476899
00000000: 0d35 813d 85ba 0cbd 8e92 c03d 8289 e1bc
00000010: 71f1 8c3d 4a9d 9e3d 6b96 1bbd 9f4b 793c
00000020: 1712 873c 982d 33bd 2c7a 3d3d 7898 7b3d
00000030: c8c5 5d3d fcc4 ac39 11b9 2f3d fbf3 bebc
00000040: 6e44 d33b 6659 2fbd 355d cdba eb14 543d
00000050: bec0 27bd 3bb1 02bd dc43 33bd 6d8d 753d
00000060: ab25 6fbd 11e0 4bbd cee9 5c3c aa85 973d
00000070: c303 7fbc 48f2 fcbc 3ee5 3cba fce3 17bc
00000080: 00bd f9bc 62dd fa3d b17f ca3d 9620 98bb
00000090: 44a1 73bb 6140 453d 7102 8cbb 5654 903d
000000a0: 4037 86bc 9957 51bc 550b 77bd bdb5 483d
000000b0: b4c6 bbba 3dc4 b9bc 6cf2 b6bc 40c2 6838
000000c0: 8fbc 8bba 53ef 7f3d cd90 683d df9a a73d
000000d0: 99f8 163d f690 0fbd 7844 ab3d dfee 11bd
000000e0: ecea 763c 7dba a9bc 96e8 9fbc 1209 c03d
000000f0: 061a b53c ef05 d3ba c01e 0fba fc8a 78bc
00000100: 6100 38bd 26ca 363d c440 edba d068 1e3d
00000110: da4f e7ba 6e78 b93b 10ab ddba 3d84 b4bc
00000120: b94b b3bb d5b6 363d 5b01 5dbb c1fc eb3b
00000130: 879b 9cbc f078 45bd 0e63 d83d 9e68 f93a
00000140: 33f2 1fbd dafc 24bb 2e0d 1fbb aca8 fbbc
00000150: 7678 2dba 72b9 533b fdd9 b8bb 126f 74bc
00000160: 34f5 54bb cb37 553b 5080 143a 92b5 cf3b
00000170: 1a24 ad3b 6ad1 33bb 607e 96bb 0972 353b
00000180: 6899 fdba 805d a4ba a531 2dbc afc2 42bc
00000190: e2d1 01bb 3a8d 69bb d0f4 31bc 1329 2ebc
000001a0: 6d3a 9e3b b007 16bb 18b7 ba3a bce1 ba39
000001b0: 7817 38bc b7ba 0ebc 97f7 0d3c 3602 01bd
000001c0: a0ca 0aba 76c4 933b 0b55 babb 6086 faba
000001d0: 66f6 40ba 8cf4 03ba cee0 c63a 6bc0 c9bc
000001e0: 26aa 1cbb 8cc6 20ba f470 3e3b 18df 17bb
000001f0: 994e 1e3b 388b 81bb e402 a3bb eecb 03ba
00000200: a98d c13a 4ac5 e7ba fdcf edbb a48d d639
00000210: 5aa5 4b3b 9aed 163c 4bbb 433b 32fa fb3c
00000220: fc2d 7fbb b665 9ebb 1d5e 3e3d 28a6 7ab9
00000230: 34b0 27bc 1e9c 843b b826 9039 0497 203a
00000240: 337a 02bb 48de 303b 59f5 cabb a93c fc3b
00000250: b401 89bc 805e 9038 12c3 85ba 9341 beba
00000260: 22ee 6abb e128 84bc 2854 28bb 1404 ed3a
00000270: c3ab 1f3c 4858 71bb 46d3 01bb b4a5 08bb
00000280: c123 00bc 6f08 173d 2812 923b e013 01ba
00000290: 4053 05bb c8bb d8b9 7d6a b9bb 48cc a7bb
000002a0: e8cd dcba de03 afbb c239 213d aa30 a2bb
000002b0: 4794 f93b ac57 da3b d0e1 c33a acee 293c
000002c0: 8775 8aba 38d0 89b9 a90b ca3b 1526 c73b
000002d0: 161d b83b 2b81 693d 6b8e 7cbb 1c77 543b
000002e0: e6bd 5aba c048 be3b 27a5 88bb c809 28bb
000002f0: 5aba adbb caa2 4a3c 8637 dfbc 0e9e 563a
00000300: 73c0 b33b 5d84 b23c 5586 4c3b bfda ad3c
00000310: 4168 0d3b 3a55 e8ba b9d6 423b 4af4 45bb
00000320: 179b 1c3b 0e40 56bb fc08 4cbb 56fb 54bb
00000330: c6f8 c2bb d05e 633b 65d1 77ba 06ac 9abc
00000340: 1460 8eba 07ae 263c 13b7 e9ba eac3 0ebc
00000350: 0720 cf3b 2ceb 6cba fec6 afbb b684 0d3b
00000360: be65 273b f99f 6cba 59a5 a23c f3d0 3ebb
00000370: df08 edbc d109 c7ba 5aea 803c a3dd c93c
00000380: 8161 ae3a 42c7 b5bb 91be 963b 4c02 4ebb
00000390: e709 cf3c cdcf d03d 6cfe cfb9 009e d1b8
000003a0: 2132 b4bb deec f93a 6597 a73d 0967 8e3b
000003b0: c415 273b 91c6 4f3a ed5a 97ba 3fe1 c53b
000003c0: 9204 093c e0c6 39ba 7c3f 95bc b149 2abb
000003d0: 7d44 acbb efea 013c 6e1b 283b 7013 3bba
000003e0: fde5 ab3b f700 f5bb 221b 2cbb f247 d0ba
000003f0: c75a 3f3c 47a4 d7b9 9bd9 06bd afdc 63bb
